…
[2025-12-15 22:18:22,930][692935] Num visible devices: 1
[2025-12-15 22:18:22,937][692935] Setting fixed seed 42
[2025-12-15 22:18:22,938][692935] Using GPUs [0] for process 0 (actually maps to GPUs [0])
[2025-12-15 22:18:22,939][692935] Initializing actor-critic model on device cuda:0
[2025-12-15 22:18:22,943][692935] CNN-Transformer tokens: 121, d_model: 64
[2025-12-15 22:18:22,952][692935] Created Actor Critic model with architecture:
[2025-12-15 22:18:22,953][692935] ActorCriticSharedWeights(
  (obs_normalizer): ObservationNormalizer()
  (encoder): CNNTransformerEncoder(
    (cnn): Sequential(
      (0): Conv2d(2, 64, kernel_size=(3, 3), stride=(1, 1), padding=(1, 1))
      (1): ReLU(inplace=True)
      (2): Conv2d(64, 64, kernel_size=(3, 3), stride=(1, 1), padding=(1, 1))
      (3): ReLU(inplace=True)
    )
    (transformer): TransformerEncoder(
      (layers): ModuleList(
        (0): TransformerEncoderLayer(
          (self_attn): MultiheadAttention(
            (out_proj): NonDynamicallyQuantizableLinear(in_features=64, out_features=64, bias=True)
          )
          (linear1): Linear(in_features=64, out_features=256, bias=True)
          (dropout): Dropout(p=0.0, inplace=False)
          (linear2): Linear(in_features=256, out_features=64, bias=True)
          (norm1): LayerNorm((64,), eps=1e-05, elementwise_affine=True)
          (norm2): LayerNorm((64,), eps=1e-05, elementwise_affine=True)
          (dropout1): Dropout(p=0.0, inplace=False)
          (dropout2): Dropout(p=0.0, inplace=False)
        )
        (1): TransformerEncoderLayer(
          (self_attn): MultiheadAttention(
            (out_proj): NonDynamicallyQuantizableLinear(in_features=64, out_features=64, bias=True)
          )
          (linear1): Linear(in_features=64, out_features=256, bias=True)
          (dropout): Dropout(p=0.0, inplace=False)
          (linear2): Linear(in_features=256, out_features=64, bias=True)
          (norm1): LayerNorm((64,), eps=1e-05, elementwise_affine=True)
          (norm2): LayerNorm((64,), eps=1e-05, elementwise_affine=True)
          (dropout1): Dropout(p=0.0, inplace=False)
          (dropout2): Dropout(p=0.0, inplace=False)
        )
      )
    )
    (extra_linear): Sequential(
      (0): Linear(in_features=64, out_features=512, bias=True)
      (1): ReLU(inplace=True)
    )
  )
  (core): ModelCoreRNN(
    (core): GRU(512, 256)
  )
  (decoder): MlpDecoder(
    (mlp): Identity()
  )
  (critic_linear): Linear(in_features=256, out_features=1, bias=True)
  (action_parameterization): ActionParameterizationDefault(
    (distribution_linear): Linear(in_features=256, out_features=5, bias=True)
  )
)
[2025-12-15 22:18:22,968][692954] Worker 5 uses CPU cores [60, 61, 62, 63, 64, 65, 66, 67, 68, 69, 70, 71]
[2025-12-15 22:18:22,976][692950] Worker 1 uses CPU cores [12, 13, 14, 15, 16, 17, 18, 19, 20, 21, 22, 23]
[2025-12-15 22:18:23,000][692951] Worker 2 uses CPU cores [24, 25, 26, 27, 28, 29, 30, 31, 32, 33, 34, 35]
[2025-12-15 22:18:23,029][692956] Worker 7 uses CPU cores [84, 85, 86, 87, 88, 89, 90, 91, 92, 93, 94, 95]
…
